yerbamate/dl/models/simple_regression/model.pt (torch, 36883 bytes, 6 tensors)

generator.conv1.weight f4 [5, 5, 7, 7, 7]
00000000: 1dc8 6a3e 3b2f 4d3e 6cd1 6f3e eaef 8a3e
00000010: b585 a03e 21df ad3e 8502 c33e 2b50 e93d
00000020: b194 083e 3019 f73d 0f2f 533e f7bf 4f3e
00000030: 826c 863e 1672 b23e 3f19 093e e426 953d
00000040: a8e1 cb3d 5443 183e 1778 443e 26d4 5d3e
00000050: 0193 ae3e 3755 143e c4fc c63d e47d 203e
00000060: 38e6 093f 7433 6c3e 691c 853e 0b00 be3e
00000070: d23d b23d 3835 ac3d fd6f 1c3e 8ee7 1a3e
00000080: 26ae 273e dd3f 303e 5fbf 893e 466b 383d
00000090: 96be 853d 9a16 ad3d 1535 0d3e eb53 743e
000000a0: c450 483e acbe ad3e 419c 7e3c f0ae 183d
000000b0: d247 053d 8316 ba3d f0bb f73d f75d 153e
000000c0: 1c5b 673e 3314 1f3d c047 1f3d 2ad8 a4bd
000000d0: 3e8c 35bc 48d1 ca3b aca1 213d 1e44 42bd
000000e0: d133 1d3d 9204 52bd e465 03bb ea55 98bd
000000f0: 477c c6bd 6889 9dbd 60a9 343d e845 3b3d
00000100: 1a8e 303d 798c bcbc 9325 23be e24d 66bc
00000110: 2036 fb3c f9d9 3a3d d7b1 183d 0805 743d
00000120: d81a a3bd 6fce 363b 2bbd 04be d1af 0abd
00000130: 3e2b efbc fc85 4d3d fb48 c43c d7d6 81bd
00000140: ea92 67bd 0c91 41bd 0fce b9bd 0afe 6ebb
00000150: e792 b3bc 9545 fb3c 119b 75bd 03da 2cbd
00000160: 9227 c4bd 655d 9fbc 4c1a 6cbc d891 183c
00000170: c2c8 123d cc7a 113d af2b a5bd 8cf8 56bd
00000180: eca0 1dbc bbc8 50bd 42f8 873c 5041 b73c
00000190: ce6b 943d 6c47 2c3d a468 253e 4c73 0e3e
000001a0: 7d0d 243e 3184 0cbd db67 de3b fc30 893d
000001b0: 767d 16ba 7a84 673c f868 f53d 83f9 1e3e
000001c0: e5b7 0cbc dbe9 8e3c 019a 0abd 5c7e 86bc
000001d0: 3b40 313d 9237 883d aad5 053e b471 0fbc
000001e0: 1d1c bcbc 35a5 aebc 0233 3e3e 0a16 72bc
000001f0: defe 853c 2a8a 9a3d e4d8 8bbd 1208 22bc
00000200: c1d6 923d 186b 47bd 28d0 063d 3499 393d
00000210: 99bc f33d e472 003d 2e26 7e3d 7a3f 3e3d
00000220: d02d 9bbc 17fe 273d b1ea 003d ce35 9e3d
00000230: f4e3 7abd c39c 37bd b9b8 723d 707e 97bd
00000240: aa54 b33d aa69 8c3d 1ad5 133d 87a2 133d
00000250: 62a6 b53d 5c93 bf3d e09e 503d d8e3 e43d
00000260: ba46 fd3d b2a5 a43d d0d0 123d a635 3d3c
00000270: 67d5 e53c 3732 06bd a883 2a3d af25 ac3d
00000280: 9044 0f3e d9c7 d33d a031 283c 5539 483d
00000290: db8a d7bd 58ab 793d 500d c73d be9e 3d3e
000002a0: cb1d 2a3c ad58 1abd 983c 21bd a39a 013e
000002b0: 17ef 95bd 6475 c0ba a1b1 a63d de10 9e3d
000002c0: 132e 003e a541 7d3d ad22 0abd d053 07bc
000002d0: daf7 cd3d ec30 3e3e ae4b c33d be75 c53d
000002e0: 1e98 153e eeae ab3c 0810 e93d 94c6 0e3e
000002f0: 4106 323e cd44 d03d 6aa6 2d3e 33ca 153e
00000300: a3ba 673d 5336 1c3e 1d2d cd3d a0e0 173e
00000310: d820 68bd 95ce 1abc 5ea6 f03c 00ae 87bd
00000320: 93a6 343c 9ca9 90bd edec fe3c a2c9 68bd
00000330: 1883 a03c 63eb 1a3d d9ee c7bd e72e 5a3d
00000340: 9f77 02bd 029c a43c aae0 d23b b170 b5bc
00000350: 9ecc 07bc 5e2c 863a 1e83 6c3d 9372 333d
00000360: dd2e 193d 64e4 78bd 9cf3 db3c fd53 57bd
00000370: 3aff 95bd b543 70bd c950 833d 1145 153d
00000380: 168d 1ebc 1317 553d 88bd 503d 762e 1fbc
00000390: 654a af3d 0cc6 863d bd89 053e 52f6 993d
000003a0: ae91 8c3d 5dea 923d b237 963c d566 823d
000003b0: 905a 773d 3842 283d d571 a93d c93c 7e3d
000003c0: 5130 673d c0f2 f73c a87f cdbb b7ba 343d
000003d0: cc93 d53c f67b b6bd 2ead 97bc d9e2 9ebc
000003e0: 9495 a43c 5e1c 4f3d 7cfc 423d 85b2 653d
000003f0: c740 bb3b bf1c c73c ae54 383d ff48 b13d
0.229279 0.20037548 0.23419732 0.27136165 0.3135201 0.33959296 0.3808786 0.11392244
0.13337971 0.12065351 0.2062342 0.20288073 0.2625466 0.34852666 0.13388537 0.072828084
0.0995515 0.14869434 0.19186436 0.2166296 0.3409653 0.14485632 0.0971618 0.15673023
0.5386691 0.23066503 0.25998238 0.37109408 0.087031975 0.08408588 0.15277095 0.15127394
0.16375026 0.17211862 0.26903817 0.04502418 0.06530492 0.084515765 0.1378978 0.23860137
0.1956206 0.33934534 0.0155401835 0.03727621 0.032539196 0.09086325 0.12096393 0.14586626
0.22593349 0.038837623 0.038886786 -0.080490425 -0.0110808 0.006189499 0.039460823 -0.047428243
0.038379494 -0.05127389 -0.0020049745 -0.07438262 -0.09691673 -0.07692224 0.04410684 0.045720965
0.04310427 -0.023016201 -0.15932302 -0.014056655 0.030665457 0.04561803 0.037278976 0.05957511
-0.079641044 0.002789404 -0.12962787 -0.033859078 -0.029195424 0.050176606 0.023960581 -0.063398056
-0.056536593 -0.047257468 -0.09072506 -0.0036467337 -0.021920634 0.030672828 -0.059962336 -0.0422001
-0.0957786 -0.019453714 -0.014410567 0.009312116 0.03583599 0.0355175 -0.080649726 -0.052483127
-0.009620886 -0.05097268 0.01659787 0.02237001 0.072471246 0.0420603 0.16153198 0.1391117
0.1602077 -0.034305755 0.006787283 0.06698796 -0.0005740741 0.014130706 0.11982912 0.15524869
-0.008588766 0.017445495 -0.033838276 -0.016417675 0.043274146 0.06651224 0.13069788 -0.008755136
-0.022962624 -0.021319011 0.18574145 -0.014775762 0.016356882 0.07545884 -0.06828478 -0.009889619
0.07169867 -0.048686117 0.032913357 0.04531212 0.119012065 0.03135957 0.06204813 0.046447255
-0.018942744 0.041013803 0.03147382 0.07725106 -0.06125255 -0.044827234 0.059258197 -0.07397163
0.08756383 0.06856091 0.0360919 0.03604367 0.08869626 0.093542784 0.050932765 0.1117627
0.12367006 0.080394164 0.03584367 0.011548435 0.02805586 -0.032762732 0.041629463 0.08405625
0.13990998 0.10340852 0.010265738 0.0488828 -0.105245315 0.06095442 0.09719336 0.18517587
0.01038308 -0.037682224 -0.039364427 0.12656645 -0.073209934 -0.0014683423 0.08139349 0.07718061
0.12517576 0.06183018 -0.033724476 -0.008259729 0.100570396 0.1857335 0.09535919 0.09641598
0.1460881 0.020957436 0.11380011 0.13942939 0.17385198 0.10169373 0.16958013 0.14627914
0.056574475 0.15255098 0.1001837 0.14831781 -0.056671947 -0.009448667 0.029376205 -0.06624985
0.0110260425 -0.070636004 0.031118834 -0.056832917 0.01959376 0.03782214 -0.097623535 0.053267386
-0.03185236 0.020093922 0.0064354734 -0.022148462 -0.008288531 0.0010236611 0.05774223 0.04381044
0.037398208 -0.060764685 0.02684956 -0.05257033 -0.07324071 -0.05865832 0.06411893 0.03644282
-0.009677192 0.05202396 0.050962 -0.009715667 0.085591115 0.06580743 0.13040824 0.07517685
0.06863724 0.071736075 0.018337104 0.0636727 0.0603891 0.041078776 0.08273665 0.062069688
0.056442562 0.03026712 -0.0062713213 0.044123378 0.026071452 -0.089103624 -0.018515196 -0.019395279
0.020090856 0.050564162 0.04760407 0.056078453 0.005714509 0.0243057 0.04500263 0.08656501

generator.conv1.bias f4 [5]
00000000: 60ba d4bc 923e 68bc c9c4 c6bc a95a 8cbb
00000010: 2a8a 95bc
-0.025967777 -0.014175074 -0.024263756 -0.0042832685 -0.018254358

generator.bn1.weight f4 [5]
00000000: 523c c13f f1cb 0840 55ce 0340 3388 0640
00000010: ba46 0740
1.5096533 2.1374476 2.0594685 2.102063 2.1136918

generator.bn1.bias f4 [5]
00000000: b7de 443f c7f8 c73e bbf4 243f 1c47 3c3f
00000010: cf04 4f3f
0.76902336 0.3905699 0.6443593 0.73546004 0.8086671

generator.bn1.running_mean f4 [5]
00000000: da6e ab40 5a47 b23f 2014 123f e202 103f
00000010: 81d8 743f
5.3572817 1.3928025 0.5706196 0.562544 0.9564286

generator.bn1.running_var f4 [5]
00000000: 60b3 1d41 9d72 fb40 ef29 1240 5012 0b40
00000010: 6f4d 7440
9.856293 7.857741 2.2838094 2.1729927 3.8172262
